trained_models/num_epochs_20_lr_0.01_batch_size_20_drop_prob_0.2.pth (torch_old, 10123 bytes, 14 tensors)

layer1.0.weight f4 [3, 1, 1, 10]
0.124408334 0.060743265 0.21866848 0.17760122 0.0092261145 -0.0146808075 0.1271421 0.026654579
0.10289798 0.028859932 -0.00013814236 -0.0030304543 -0.0060500833 -0.00031679054 0.00053157815 -0.001261584
-0.0005394515 -0.0029602086 -0.00045580915 -0.000970605 -0.2948697 0.52665585 -0.32823992 -0.10746238
0.27423644 -0.0054397136 -0.31692022 0.1360228 0.11522899 -0.12071185
00000000: ccc9 fe3d eecd 783d a1ea 5f3e 18dd 353e
00000010: 2129 173c c587 70bc 8a31 023e b45a da3c
00000020: 2dbc d23d aa6b ec3c 4fda 10b9 969a 46bb
00000030: c73f c6bb e816 a6b9 9b59 0b3a bc5b a5ba
00000040: fa69 0dba 0f00 42bb abf9 eeb9 3370 7eba
00000050: 29f9 96be ebd2 063f 100f a8be 3c15 dcbd
00000060: b868 8c3e a03f b2bb 5e43 a2be 9049 0b3e
00000070: 2dfd eb3d c637 f7bd

layer1.0.bias f4 [3]
0.0017854001 0.0025856078 0.0013485291
00000000: 1604 ea3a 4d73 293b 21c1 b03a

layer1.1.weight f4 [3]
-0.1594379 0.004312043 0.47635508
00000000: b043 23be 0a4c 8d3b d0e4 f33e

layer1.1.bias f4 [3]
-0.23661934 -0.0031980216 0.7336501
00000000: 574c 72be e695 51bb 7ed0 3b3f

layer1.1.running_mean f4 [3]
0.0022971788 0.002579213 0.0012840877
00000000: 448c 163b 0308 293b d54e a83a

layer1.1.running_var f4 [3]
1.6110236e-05 5.8287375e-09 2.9392706e-05
00000000: 7824 8737 1e46 c831 5b90 f637

layer2.0.weight f4 [6, 3, 1, 10]
0.026943196 -0.04260882 3.645528e-05 -0.008745622 -0.00560404 -0.034989025 -0.02992104 -0.018644076
-0.029332446 0.058677204 0.002287811 -0.001374934 -0.00077100453 -0.00037911203 -0.0013980832 -0.00045541683
-0.0005812175 0.00086536375 -0.0017791792 -0.0013520124 0.10149178 0.52657497 -0.208527 -0.044272535
-0.0149011575 -0.023236062 0.013710332 0.0025308353 -0.1560722 0.12429081 -0.017153338 0.109906346
-0.050334025 -0.029923331 -0.012159036 0.026971646 -0.013603595 -0.008800147 0.025257895 0.04782526
-0.0013290076 -0.0011829487 0.0016064935 7.345444e-05 -0.0010776663 9.377239e-05 -0.0007443365 -0.0005125422
0.00046885238 0.00061256986 0.004899865 0.011612007 -0.09037193 -0.24924353 0.17016296 0.39066863
-0.24658976 -0.0365705 -0.106072225 0.20069173 -0.030233605 0.1573763 -0.080735445 -0.047873527
-0.014691115 0.033698604 -0.022091255 -0.018174183 0.034721397 0.07027039 0.0014406422 0.0034907598
-0.0005284095 0.0012741026 -0.0010050427 0.0025164601 0.0014151164 0.0021227368 0.003907395 0.006246551
0.048784982 0.04564444 -0.029056478 0.26530454 -0.46396402 -0.20732406 -0.043997996 -0.28406435
0.07335444 0.009391304 -0.018376425 -0.033272393 -0.025979472 -0.006577168 -0.017806962 -0.018424898
-0.031481855 -0.007009192 -0.000789312 -0.006866218 -0.00029024755 0.00041793284 -0.0008121221 -0.0005672776
-0.00027901022 0.00208916 -0.0017482761 0.00052174914 0.0005901687 0.000768465 0.13023062 -0.030411571
0.3155631 0.013545766 0.011294796 0.033969555 0.04573421 -0.0048079784 0.0835306 -0.036586985
-0.011093198 -0.0047350167 -0.007854516 -0.004414431 -0.010476796 0.008960385 0.045601007 -0.005071561
0.006270133 -0.004281398 -0.00058539264 -0.0008790953 -0.0005410806 -0.0011891046 -0.00038038738 0.0007491401
-3.3772667e-05 -0.0010809805 3.5266862e-06 -0.0012462214 -0.031462956 0.0069941035 -0.02878148 -0.0026092276
-0.015533822 0.018960308 -0.077299744 0.108753555 0.013304208 -0.008483292 -0.016828392 -0.019593727
-0.0032355017 -0.003867055 -0.004387617 -0.00045595568 0.0061020716 -0.0021258965 0.003918863 0.0006706744
0.0011030647 -0.0005831885 -0.00027100064 0.001219425 -0.0012885899 0.00028520377 -0.00073526043 0.0003372659
0.0012220376 -0.00024286647 -0.009553351 0.045045882 -0.018011622 0.06902376 0.038968522 0.0055485084
0.0012198678 0.009770897 -0.01100621 0.028600017
00000000: fab7 dc3c 9686 2ebd 8fe7 1838 cc49 0fbc
00000010: 18a2 b7bb a750 0fbd f81c f5bc 76bb 98bc
00000020: 994a f0bc 8257 703d 19ef 153b 2137 b4ba
00000030: 3d1d 4aba 8ec3 c6b9 e33f b7ba 03c5 eeb9
00000040: d95c 18ba 94d9 623a 5933 e9ba 0236 b1ba
00000050: ecda cf3d 9ecd 063f 1a88 55be 1e57 35bd
00000060: fc23 74bc 8e59 bebc 4da1 603c 5fdc 253b
00000070: 64d1 1fbe 2e8c fe3d 2885 8cbc 9416 e13d
00000080: 0d2b 4ebd c621 f5bc b136 47bc a4f3 dc3c
00000090: 9de1 5ebc 7e2e 10bc a5e9 ce3c 6be4 433d
000000a0: 1832 aeba 2c0d 9bba fa90 d23a 8d0b 9a38
000000b0: 7b40 8dba aba7 c438 941f 43ba 205c 06ba
000000c0: 4dd0 f539 de94 203a 0c8f a03b 4a40 3e3c
000000d0: eb14 b9bd b239 7fbe 333f 2e3e b805 c83e
000000e0: 0782 7cbe f3ca 15bd 653c d9bd 2282 4d3e
000000f0: 77ac f7bc 4127 213e a058 a5bd 0817 44bd
00000100: 01b3 70bc 8c07 0a3d b8f8 b4bc 06e2 94bc
00000110: 0638 0e3d ece9 8f3d eed3 bc3a 3bc5 643b
00000120: f684 0aba caff a63a a3bb 83ba 32eb 243b
00000130: 6d7b b93a 9d1d 0b3b 9b09 803b deaf cc3b
00000140: c3d2 473d aaf5 3a3d da07 eebc ffd5 873e
00000150: b18c edbe c24c 54be 3e37 34bd e270 91be
00000160: da3a 963d fcdd 193c 288a 96bc a248 08bd
00000170: e7d2 d4bc 4985 d7bb e8df 91bc d0ef 96bc
00000180: 1ef3 00bd 5dad e5bb d5e9 4eba 03fe e0bb
00000190: 5e2c 98b9 ff1d db39 97e4 54ba 5bb5 14ba
000001a0: 1e48 92b9 4aea 083b 6926 e5ba fec5 083a
000001b0: 8db5 1a3a d072 493a 2d5b 053e b021 f9bc
000001c0: 7d91 a13e 0fef 5d3c cf0d 393c a923 0b3d
000001d0: cc53 3b3d 3f8c 9dbb 1712 ab3d 3cdc 15bd
000001e0: 3fc0 35bc 3328 9bbb 3ab0 00bc eea6 90bb
000001f0: dea6 2bbc 94ce 123c 1fc8 3a3d 562f a6bb
00000200: b075 cd3b f84a 8cbb 0975 19ba 1673 66ba
00000210: 4ed7 0dba bbdb 9bba bb6e c7b9 f161 443a
00000220: 20a7 0db8 b0af 8dba 02ac 6c36 4058 a3ba
00000230: 4ddf 00bd cb2e e53b 23c7 ebbc 93ff 2abb
00000240: 9281 7ebc a652 9b3c 544f 9ebd 2fba de3d
00000250: e5f9 593c 81fd 0abc b2db 89bc 0683 a0bc
00000260: b60a 54bb 6b6e 7dbb 00c6 8fbb 560d efb9
00000270: e3f3 c73b a052 0bbb ce69 803b 32d0 2f3a
00000280: b694 903a 1ee1 18ba 1715 8eb9 1dd5 9f3a
00000290: e7e5 a8ba 6787 9539 7ebe 40ba 10d3 b039
000002a0: c72c a03a f9a9 7eb9 a985 1cbc 0882 383d
000002b0: 1c8d 93bc 545c 8d3d 759d 1f3d 43d0 b53b
000002c0: f9e3 9f3a 1d16 203c 6453 34bc 954a ea3c

layer2.0.bias f4 [6]
0.002498144 0.0011350709 -0.001000101 -0.00037423373 -0.0001966649 -0.00027568176
00000000: e7b7 233b a9c6 943a d215 83ba cd34 c4b9
00000010: d537 4eb9 6189 90b9

layer2.1.weight f4 [6]
0.88983524 1.9084439 1.3516868 0.51187253 0.40372753 0.13111903
00000000: 3ecc 633f e447 f43f 1304 ad3f 140a 033f
00000010: 60b5 ce3e 1144 063e

layer2.1.bias f4 [6]
0.16281784 0.079308435 0.00934462 0.056821674 0.024110176 0.027862024
00000000: b8b9 263e 766c a23d 2d1a 193c d8bd 683d
00000010: b482 c53c e63e e43c

layer2.1.running_mean f4 [6]
0.17713189 0.031013347 -0.3163492 0.3024315 -0.0099722855 0.08557205
00000000: 1062 353e b40f fe3c 86f8 a1be 4dd8 9a3e
00000010: cc62 23bc 6640 af3d

layer2.1.running_var f4 [6]
0.12014987 0.069823764 0.22911018 0.12673646 0.0041073165 0.010086298
00000000: 2311 f63d c3ff 8e3d dc9b 6a3e 34c7 013e
00000010: ab96 863b 0041 253c

fc.weight f4 [2, 828]
0.0020769462 0.0022036843 0.00211979 0.0021857675 0.0018054061 0.002293907 0.0020058951 0.0018988162
0.0022510309 0.002284312 0.0020817837 0.0022102247 0.002042442 0.002127522 0.0017746513 0.0019783676
0.0020628413 0.002074965 0.0017979018 0.0019549453 0.0020676965 0.002081801 0.0017705634 0.012654847
0.005860345 0.005627031 0.0059023993 0.005855395 0.005576147 0.005886979 0.0057748193 0.006140335
0.005764007 0.0055857417 0.005717892 0.006076554 0.005915516 0.0061429855 0.006062695 0.0060425387
0.0060507976 0.0057368814 0.005839508 0.005735235 0.005757972 0.005906384 0.012665735 0.0057293936
0.005916961 0.00587456 0.006140105 0.005902069 0.006265715 0.0061074886 0.006203242 0.006447742
0.006542469 0.006057912 0.0062122904 0.006334326 0.0062362766 0.0066693253 0.0065133665 0.0069726836
0.006605034 0.0069516287 0.0071518086 0.0073660086 0.0076609896 0.51129717 0.11911345 -0.012113645
-0.018774183 0.051156912 0.07899868 0.16327913 0.16515453 0.14147747 0.23595273 0.020399453
0.010796179 0.009723998 0.010582183 0.0138722975 0.015134404 0.009776629 0.0039837323 0.01560928
0.012385232 0.010725853 0.014210399 0.015360719 0.012769634 0.005605793 0.006138298 0.0060741426
0.005778836 0.0061435876 0.005662276 0.005927152 0.00605525 0.0055991467 0.0059143673 0.0059352173
0.0058427714 0.005680751 0.005607021 0.005697957 0.0057370504 0.005600256 0.005715571 0.0056015584
0.0060915477 0.005768364 0.006222756 0.0022144176 0.0022762092 0.002002765 0.002321468 0.0020762
0.001819208 0.0019262672 0.001766793 0.0019135029 0.001778424 0.0018858692 0.0021502285 0.0021359166
0.0021352912 0.001856592 0.0022584302 0.0017688739 0.0019383382 0.0018652781 0.0018350914 0.0020864126
0.0019008723 0.0018774493 -0.003428469 -0.0035210024 -0.0036953583 -0.0035996493 -0.0036292986 -0.003731812
-0.0034461014 -0.0036511668 -0.003683765 -0.0039352067 -0.003546134 -0.003418168 -0.0036431558 -0.003583526
-0.0038397643 -0.0038782973 -0.0037652012 -0.0035561665 -0.0036110124 -0.003452432 -0.0038973931 -0.0037214798
-0.0035488643 0.04383886 0.0044396296 0.0041880184 0.004561171 0.0042827423 0.0043947734 0.004380756
0.0044151656 0.0046565556 0.0047078887 0.0047535035 0.0043216525 0.0044264323 0.0042924564 0.0045437855
0.0045728544 0.0047045634 0.0045906464 0.004392806 0.004552185 0.004282169 0.004485386 0.007120534
0.043896683 0.00444159 0.0039776033 0.0038852745 0.0039166855 0.0040251785 0.003463287 0.003381565
0.003080003 0.0029386207 0.0028552907 0.003037 0.003162075 0.0026610761 0.0025838153 0.002462002
0.0025143668 0.0022999942 0.0020273502 0.0019534817 0.0021147705 0.001780393 0.004733639 -1.0812782
0.33446327 -0.20713548 0.13006857 -0.10570776 0.058066852 0.21706809 0.2296573 -0.06401503
0.6352625 -0.0014825949 0.0059401183 -0.0063069724 0.0119932685 0.0066163954 0.005890966 -0.0074304915
-0.008483566 0.0091457 0.006662947 0.0060297693 0.0064886166 0.011556767 0.04423768 0.004480162
0.0043926477 0.004296472 0.004306921 0.004469697 0.004598729 0.0043719495 0.0046305447 0.004186297
0.004411257 0.004379716 0.0047130655 0.0045745303 0.0046731126 0.0042420337 0.004486309 0.004187967
0.004330417 0.00431122 0.0045687845 0.0045630843 0.0072844136 -0.0036486695 -0.0039373217 -0.0038612932
00000000: 601d 083b b06b 103b 2dec 0a3b 183f 0f3b
00000010: 60a3 ec3a 6055 163b 5675 033b b3e1 f83a
00000020: 0886 133b 65b4 153b 896e 083b 6bd9 103b
00000030: 7eda 053b e56d 0b3b 6b9b e83a 80a7 013b
00000040: bc30 073b 23fc 073b 93a7 eb3a 8a1e 003b
00000050: 3182 073b d36e 083b 4012 e83a 4756 4f3c
00000060: 2308 c03b f562 b83b ea68 c13b 9dde bf3b
00000070: 1db8 b63b 8fe7 c03b b23a bd3b dd34 c93b
00000080: ffdf bc3b 9908 b73b 285d bb3b d41d c73b
00000090: f2d6 c13b 194b c93b 92a9 c63b 7d00 c63b
000000a0: c545 c63b 73fc bb3b 5859 bf3b a3ee bb3b
000000b0: 5fad bc3b 578a c13b f183 4f3c a3bd bb3b
000000c0: 11e3 c13b 627f c03b ef32 c93b 2566 c13b
000000d0: a150 cd3b 5421 c83b 9144 cb3b 9547 d33b
000000e0: 3562 d63b 7381 c63b 7890 cb3b 2e90 cf3b
000000f0: ae59 cc3b 5b8a da3b 146e d53b 1c7b e43b
00000100: 0b6f d83b 7dca e33b b859 ea3b 8f5e f13b
00000110: 0a09 fb3b 5fe4 023f c1f1 f33d 4f78 46bc
00000120: 51cc 99bc e989 513d 0fca a13d a532 273e
00000130: 451e 293e 78df 103e 989d 713e c11c a73c
00000140: 75e2 303c 6751 1f3c e460 2d3c a248 633c
00000150: 4bf6 773c 272e 203c f889 823b 11be 7f3c
00000160: 6eeb 4a3c 7dbb 2f3c bcd2 683c 86ab 7b3c
00000170: ba37 513c cdb0 b73b c723 c93b 9a09 c73b
00000180: 645c bd3b 2650 c93b 9d8a b93b 8e38 c23b
00000190: 1e6b c63b 0c79 b73b 4fcd c13b 367c c23b
000001a0: b874 bf3b 9825 ba3b 1abb b73b edb5 ba3b
000001b0: defd bb3b 5a82 b73b af49 bb3b 478d b73b
000001c0: 9b9b c73b 8b04 bd3b 43e8 cb3b c31f 113b
000001d0: 742c 153b d240 033b c523 183b db10 083b
000001e0: 7e72 ee3a cd7a fc3a bc93 e73a 81ce fa3a
000001f0: 021a e93a 452f f73a d9ea 0c3b bcfa 0b3b
00000200: 3ef0 0b3b e458 f33a 2c02 143b 8fd9 e73a
00000210: d60f fe3a 597c f43a 7387 f03a 32bc 083b
00000220: b126 f93a bf14 f63a 2ab0 60bb 9ec0 66bb
00000230: d32d 72bb 18e8 6bbb 87d9 6dbb 6a91 74bb
00000240: fdd7 61bb 6a48 6fbb 526b 71bb e8f2 80bb
00000250: 4266 68bb 5803 60bb 03c2 6ebb 97d9 6abb
00000260: 8ea4 7bbb 082b 7ebb 98c1 76bb 930e 69bb
00000270: bca6 6cbb 3342 62bb 686b 7fbb 12e4 73bb
00000280: 1094 68bb 6090 333d 507a 913b a53b 893b
00000290: e075 953b 3f56 8c3b 0802 903b 728c 8f3b
000002a0: 18ad 903b 0596 983b a244 9a3b 47c3 9b3b
000002b0: a69c 8d3b 9b0b 913b bca7 8c3b 09e4 943b
000002c0: e2d7 953b bd28 9a3b 226d 963b 87f1 8f3b
000002d0: 7f2a 953b 7051 8c3b 25fa 923b 5e53 e93b
000002e0: 02cd 333d c28a 913b 8e56 823b 17a0 7e3b
000002f0: 8a57 803b a5e5 833b 50f8 623b 3f9d 5d3b
00000300: e0d9 493b e095 403b d41f 3b3b 6808 473b
00000310: d13a 4f3b 7365 2e3b 3a55 293b 8a59 213b
00000320: 13c8 243b 80bb 163b 4bdd 043b fc05 003b
00000330: f697 0a3b 135c e93a a41c 9b3b 5367 8abf
00000340: c53e ab3e 531b 54be b230 053e 4f7d d8bd
00000350: 82d7 6d3d 1947 5e3e 492b 6b3e 501a 83bd
00000360: 90a0 223f a153 c2ba 53a5 c23b b8aa cebb
00000370: 6a7f 443c 59ce d83b 0109 c13b 7b7b f3bb
00000380: a8fe 0abc d9d7 153c da54 da3b 5f95 c53b
00000390: 769e d43b 9858 3d3c 9232 353d 53ce 923b
000003a0: 33f0 8f3b 6bc9 8c3b 1221 8d3b 8976 923b
000003b0: efb0 963b 9242 8f3b d3bb 973b 342d 893b
000003c0: 4e8c 903b b883 8f3b 0f70 9a3b f1e5 953b
000003d0: e920 993b c200 8b3b e301 933b 373b 893b
000003e0: 2ce6 8d3b 2245 8d3b beb5 953b ed85 953b
000003f0: 17b2 ee3b 841e 6fbb a604 81bb c00d 7dbb

fc.bias f4 [2]
-0.016903732 0.016989343
00000000: b279 8abc 3c2d 8b3c
